…
===============================================================================================================================================================
===>No model checkpoint
[#] Define the Learning rate, Optimizer, Decay rate and Scheduler...
[#]Model Architecture
####### Generator - EOT #######
Generator(
  (recurrent_blocks): ModuleList(
    (0): GRU(2, 32, batch_first=True, bidirectional=True)
    (1): GRU(64, 32, batch_first=True, bidirectional=True)
    (2): GRU(64, 32, batch_first=True, bidirectional=True)
    (3): GRU(64, 32, batch_first=True, bidirectional=True)
  )
  (fc_blocks): Sequential(
    (0): Sequential(
      (0): Linear(in_features=64, out_features=32, bias=True)
      (1): LeakyReLU(negative_slope=0.2)
    )
    (1): Sequential(
      (0): Linear(in_features=32, out_features=16, bias=True)
      (1): LeakyReLU(negative_slope=0.2)
    )
    (2): Sequential(
      (0): Linear(in_features=16, out_features=8, bias=True)
      (1): LeakyReLU(negative_slope=0.2)
    )
    (3): Sequential(
      (0): Linear(in_features=8, out_features=4, bias=True)
      (1): LeakyReLU(negative_slope=0.2)
    )
    (4): Sequential(
      (0): Linear(in_features=4, out_features=1, bias=True)
    )
  )
)
####### Generator - Depth #######
Generator(
  (recurrent_blocks): ModuleList(
    (0): GRU(3, 32, batch_first=True, bidirectional=True)
    (1): GRU(64, 32, batch_first=True, bidirectional=True)
    (2): GRU(64, 32, batch_first=True, bidirectional=True)
    (3): GRU(64, 32, batch_first=True, bidirectional=True)
  )
  (fc_blocks): Sequential(
    (0): Sequential(
      (0): Linear(in_features=64, out_features=32, bias=True)
      (1): LeakyReLU(negative_slope=0.2)
    )
    (1): Sequential(
      (0): Linear(in_features=32, out_features=16, bias=True)
      (1): LeakyReLU(negative_slope=0.2)
    )
    (2): Sequential(
      (0): Linear(in_features=16, out_features=8, bias=True)
      (1): LeakyReLU(negative_slope=0.2)
    )
    (3): Sequential(
      (0): Linear(in_features=8, out_features=4, bias=True)
      (1): LeakyReLU(negative_slope=0.2)
    )
    (4): Sequential(
      (0): Linear(in_features=4, out_features=1, bias=True)
    )
  )
)
####### Discriminator #######
Discriminator(
  (recurrent_blocks): ModuleList(
    (0): GRU(3, 32, batch_first=True, bidirectional=True)
    (1): GRU(64, 32, batch_first=True, bidirectional=True)
    (2): GRU(64, 32, batch_first=True, bidirectional=True)
  )
  (fc_blocks): Sequential(
    (0): Sequential(
      (0): Linear(in_features=64, out_features=32, bias=True)
      (1): LeakyReLU(negative_slope=0.2)
    )
    (1): Sequential(
      (0): Linear(in_features=32, out_features=16, bias=True)
      (1): LeakyReLU(negative_slope=0.2)
    )
    (2): Sequential(
      (0): Linear(in_features=16, out_features=8, bias=True)
      (1): LeakyReLU(negative_slope=0.2)
    )
    (3): Sequential(
      (0): Linear(in_features=8, out_features=4, bias=True)
      (1): LeakyReLU(negative_slope=0.2)
    )
    (4): Sequential(
      (0): Linear(in_features=4, out_features=1, bias=True)
    )
  )
)
>>>>>>>>>>>>>>>>>>>>>>>>>>>>>[Epoch : 1/100000]<<<<<<<<<<<<<<<<<<<<<<<<<<<<
[#]Learning rate (Discriminator) :  0.001
[#]Learning rate (Generator) :  0.001
[#]Training Discriminator...[1/10]
===> [Minibatch 1/58].........Generator Loss : 226.928, Discriminator Loss : 0.978, Val Loss : 696.433
======> [Generator] Adversarial Loss (lsgan) : 1.835, Trajectory Loss : 172.898, Gravity Loss : 50.769, EndOfTrajectory Loss : 1.427
…
