…
===============================================================================================================================================================
===>No model checkpoint
[#] Define the Learning rate, Optimizer, Decay rate and Scheduler...
[#]Model Architecture
####### Model - Flag #######
BiGRUResidualAdd(
  (recurrent_blocks): ModuleList(
    (0): GRU(2, 32, batch_first=True, bidirectional=True)
    (1): GRU(64, 32, batch_first=True, bidirectional=True)
    (2): GRU(64, 32, batch_first=True, bidirectional=True)
    (3): GRU(64, 32, batch_first=True, bidirectional=True)
  )
  (fc_blocks): Sequential(
    (0): Sequential(
      (0): Linear(in_features=64, out_features=32, bias=True)
      (1): ReLU()
    )
    (1): Sequential(
      (0): Linear(in_features=32, out_features=16, bias=True)
      (1): ReLU()
    )
    (2): Sequential(
      (0): Linear(in_features=16, out_features=8, bias=True)
      (1): ReLU()
    )
    (3): Sequential(
      (0): Linear(in_features=8, out_features=4, bias=True)
      (1): ReLU()
    )
    (4): Sequential(
      (0): Linear(in_features=4, out_features=2, bias=True)
    )
  )
)
####### Model - Depth #######
BiGRUResidualAdd(
  (recurrent_blocks): ModuleList(
    (0): GRU(4, 32, batch_first=True, bidirectional=True)
    (1): GRU(64, 32, batch_first=True, bidirectional=True)
    (2): GRU(64, 32, batch_first=True, bidirectional=True)
    (3): GRU(64, 32, batch_first=True, bidirectional=True)
  )
  (fc_blocks): Sequential(
    (0): Sequential(
      (0): Linear(in_features=64, out_features=32, bias=True)
      (1): ReLU()
    )
    (1): Sequential(
      (0): Linear(in_features=32, out_features=16, bias=True)
      (1): ReLU()
    )
    (2): Sequential(
      (0): Linear(in_features=16, out_features=8, bias=True)
      (1): ReLU()
    )
    (3): Sequential(
      (0): Linear(in_features=8, out_features=4, bias=True)
      (1): ReLU()
    )
    (4): Sequential(
      (0): Linear(in_features=4, out_features=1, bias=True)
    )
  )
)
>>>>>>>>>>>>>>>>>>>>>>>>>>>>>[Epoch : 1/100000]<<<<<<<<<<<<<<<<<<<<<<<<<<<<
[#]Learning rate (Depth & flag) :  0.01
train_ball_trajectory_depth_jointly_ongroundflag.py:277: RuntimeWarning:

invalid value encountered in long_scalars

===> [Minibatch 1/35].........Train Loss : 645.741, Val Loss : 274.545
======> Trajectory Loss : 423.513, Gravity Loss : 0.871, EndOfTrajectory Loss : 1.379, OnGround Loss : 0.680, BelowGroundPenalize Loss : 0.001, Depth Loss : 0.015
…
