…
{'flag': {'input_size': 2, 'output_size': 1, 'hidden_dim': 32, 'n_layers': 1, 'n_stack': 4, 'recurrent_stacked': [2, 32, 32, 32, 32], 'fc_size': [64, 32, 16, 8, 4, 1]}, 'depth': {'input_size': 3, 'output_size': 2, 'hidden_dim': 32, 'n_layers': 1, 'n_stack': 4, 'recurrent_stacked': [3, 32, 32, 32, 32], 'fc_size': [64, 32, 16, 8, 4, 2]}}
===>No model checkpoint
[#] Define the Learning rate, Optimizer, Decay rate and Scheduler...
[#]Model Architecture
####### Model - EOT #######
BiLSTMResidualTrainableInit(
  (recurrent_blocks): ModuleList(
    (0): LSTM(2, 32, batch_first=True, bidirectional=True)
    (1): LSTM(64, 32, batch_first=True, bidirectional=True)
    (2): LSTM(64, 32, batch_first=True, bidirectional=True)
    (3): LSTM(64, 32, batch_first=True, bidirectional=True)
  )
  (fc_blocks): Sequential(
    (0): Sequential(
      (0): Linear(in_features=64, out_features=32, bias=True)
      (1): LeakyReLU(negative_slope=0.01)
    )
    (1): Sequential(
      (0): Linear(in_features=32, out_features=16, bias=True)
      (1): LeakyReLU(negative_slope=0.01)
    )
    (2): Sequential(
      (0): Linear(in_features=16, out_features=8, bias=True)
      (1): LeakyReLU(negative_slope=0.01)
    )
    (3): Sequential(
      (0): Linear(in_features=8, out_features=4, bias=True)
      (1): LeakyReLU(negative_slope=0.01)
    )
    (4): Sequential(
      (0): Linear(in_features=4, out_features=1, bias=True)
      (1): Sigmoid()
    )
  )
)
####### Model - Depth #######
BiLSTMResidualTrainableInit(
  (recurrent_blocks): ModuleList(
    (0): LSTM(3, 32, batch_first=True, bidirectional=True)
    (1): LSTM(64, 32, batch_first=True, bidirectional=True)
    (2): LSTM(64, 32, batch_first=True, bidirectional=True)
    (3): LSTM(64, 32, batch_first=True, bidirectional=True)
  )
  (fc_blocks): Sequential(
    (0): Sequential(
      (0): Linear(in_features=64, out_features=32, bias=True)
      (1): LeakyReLU(negative_slope=0.01)
    )
    (1): Sequential(
      (0): Linear(in_features=32, out_features=16, bias=True)
      (1): LeakyReLU(negative_slope=0.01)
    )
    (2): Sequential(
      (0): Linear(in_features=16, out_features=8, bias=True)
      (1): LeakyReLU(negative_slope=0.01)
    )
    (3): Sequential(
      (0): Linear(in_features=8, out_features=4, bias=True)
      (1): LeakyReLU(negative_slope=0.01)
    )
    (4): Sequential(
      (0): Linear(in_features=4, out_features=2, bias=True)
    )
  )
)
>>>>>>>>>>>>>>>>>>>>>>>>>>>>>[Epoch : 1/100000]<<<<<<<<<<<<<<<<<<<<<<<<<<<<
[#]Learning rate (Depth & EOT) :  0.01
===> [Minibatch 1/129].........OrderedDict([('h', tensor([[[[ 0.3776, -1.0538, -0.4473,  ...,  0.4381, -0.5739,  1.2612],
          [-1.0918,  1.5276,  0.5683,  ...,  2.1963,  0.5395,  1.5464],
          [ 0.2342, -0.1192, -0.0901,  ...,  0.9079,  0.6140,  0.5061],
…
