…
===============================================================================================================================================================
===>No model checkpoint
[#] Define the Learning rate, Optimizer, Decay rate and Scheduler...
[#]Model Architecture
####### Model - Flag #######
BiGRUResidualAdd(
  (recurrent_blocks): ModuleList(
    (0): GRU(2, 32, batch_first=True, bidirectional=True)
    (1): GRU(64, 32, batch_first=True, bidirectional=True)
    (2): GRU(64, 32, batch_first=True, bidirectional=True)
    (3): GRU(64, 32, batch_first=True, bidirectional=True)
  )
  (fc_blocks): Sequential(
    (0): Sequential(
      (0): Linear(in_features=64, out_features=32, bias=True)
      (1): ReLU()
    )
    (1): Sequential(
      (0): Linear(in_features=32, out_features=16, bias=True)
      (1): ReLU()
    )
    (2): Sequential(
      (0): Linear(in_features=16, out_features=8, bias=True)
      (1): ReLU()
    )
    (3): Sequential(
      (0): Linear(in_features=8, out_features=4, bias=True)
      (1): ReLU()
    )
    (4): Sequential(
      (0): Linear(in_features=4, out_features=2, bias=True)
    )
  )
)
####### Model - Depth #######
BiGRUResidualAdd(
  (recurrent_blocks): ModuleList(
    (0): GRU(4, 32, batch_first=True, bidirectional=True)
    (1): GRU(64, 32, batch_first=True, bidirectional=True)
    (2): GRU(64, 32, batch_first=True, bidirectional=True)
    (3): GRU(64, 32, batch_first=True, bidirectional=True)
  )
  (fc_blocks): Sequential(
    (0): Sequential(
      (0): Linear(in_features=64, out_features=32, bias=True)
      (1): ReLU()
    )
    (1): Sequential(
      (0): Linear(in_features=32, out_features=16, bias=True)
      (1): ReLU()
    )
    (2): Sequential(
      (0): Linear(in_features=16, out_features=8, bias=True)
      (1): ReLU()
    )
    (3): Sequential(
      (0): Linear(in_features=8, out_features=4, bias=True)
      (1): ReLU()
    )
    (4): Sequential(
      (0): Linear(in_features=4, out_features=1, bias=True)
    )
  )
)
>>>>>>>>>>>>>>>>>>>>>>>>>>>>>[Epoch : 1/100000]<<<<<<<<<<<<<<<<<<<<<<<<<<<<
[#]Learning rate (Depth & flag) :  0.01
===> [Minibatch 1/58].........tensor([[ 1.8072,  1.4172,  0.0000,  0.0000],
        [ 1.3018,  1.3335,  0.0000,  0.0000],
        [ 3.2767, -0.4105,  0.0000,  0.0000],
        ...,
        [ 0.7297,  0.1469,  0.0000,  0.0000],
        [-1.2635,  0.1696,  0.0000,  0.0000],
…
