…
{'flag': {'input_size': 2, 'output_size': 1, 'hidden_dim': 32, 'n_layers': 1, 'n_stack': 4, 'recurrent_stacked': [2, 32, 32, 32, 32], 'fc_size': [64, 32, 16, 8, 4, 1]}, 'depth': {'input_size': 3, 'output_size': 2, 'hidden_dim': 32, 'n_layers': 1, 'n_stack': 4, 'recurrent_stacked': [3, 32, 32, 32, 32], 'fc_size': [64, 32, 16, 8, 4, 2]}}
===>No model checkpoint
[#] Define the Learning rate, Optimizer, Decay rate and Scheduler...
[#]Model Architecture
####### Model - EOT #######
BiLSTMResidualTrainableInit(
  (recurrent_blocks): ModuleList(
    (0): LSTM(2, 32, batch_first=True, bidirectional=True)
    (1): LSTM(64, 32, batch_first=True, bidirectional=True)
    (2): LSTM(64, 32, batch_first=True, bidirectional=True)
    (3): LSTM(64, 32, batch_first=True, bidirectional=True)
  )
  (fc_blocks): Sequential(
    (0): Sequential(
      (0): Linear(in_features=64, out_features=32, bias=True)
      (1): LeakyReLU(negative_slope=0.01)
    )
    (1): Sequential(
      (0): Linear(in_features=32, out_features=16, bias=True)
      (1): LeakyReLU(negative_slope=0.01)
    )
    (2): Sequential(
      (0): Linear(in_features=16, out_features=8, bias=True)
      (1): LeakyReLU(negative_slope=0.01)
    )
    (3): Sequential(
      (0): Linear(in_features=8, out_features=4, bias=True)
      (1): LeakyReLU(negative_slope=0.01)
    )
    (4): Sequential(
      (0): Linear(in_features=4, out_features=1, bias=True)
      (1): Sigmoid()
    )
  )
)
####### Model - Depth #######
BiLSTMResidualTrainableInit(
  (recurrent_blocks): ModuleList(
    (0): LSTM(3, 32, batch_first=True, bidirectional=True)
    (1): LSTM(64, 32, batch_first=True, bidirectional=True)
    (2): LSTM(64, 32, batch_first=True, bidirectional=True)
    (3): LSTM(64, 32, batch_first=True, bidirectional=True)
  )
  (fc_blocks): Sequential(
    (0): Sequential(
      (0): Linear(in_features=64, out_features=32, bias=True)
      (1): LeakyReLU(negative_slope=0.01)
    )
    (1): Sequential(
      (0): Linear(in_features=32, out_features=16, bias=True)
      (1): LeakyReLU(negative_slope=0.01)
    )
    (2): Sequential(
      (0): Linear(in_features=16, out_features=8, bias=True)
      (1): LeakyReLU(negative_slope=0.01)
    )
    (3): Sequential(
      (0): Linear(in_features=8, out_features=4, bias=True)
      (1): LeakyReLU(negative_slope=0.01)
    )
    (4): Sequential(
      (0): Linear(in_features=4, out_features=2, bias=True)
    )
  )
)
>>>>>>>>>>>>>>>>>>>>>>>>>>>>>[Epoch : 1/100000]<<<<<<<<<<<<<<<<<<<<<<<<<<<<
[#]Learning rate (Depth & EOT) :  0.01
===> [Minibatch 1/129].........OrderedDict([('initial_hidden', tensor([[[[-1.3396, -1.5608, -0.1458,  ...,  0.8469, -0.3280,  1.2237],
          [-0.4581,  1.0592, -0.3226,  ..., -1.4542, -0.7705,  1.5800],
          [ 0.2017, -0.7783,  0.2918,  ...,  0.2907,  1.7187,  1.7882],
…
