…
===============================================================================================================================================================
===>No model checkpoint
[#] Define the Learning rate, Optimizer, Decay rate and Scheduler...
[#]Model Architecture
####### Model - EOT #######
BiGRUResidualAdd(
  (recurrent_blocks): ModuleList(
    (0): GRU(2, 32, batch_first=True, bidirectional=True)
    (1): GRU(64, 32, batch_first=True, bidirectional=True)
    (2): GRU(64, 32, batch_first=True, bidirectional=True)
    (3): GRU(64, 32, batch_first=True, bidirectional=True)
  )
  (fc_blocks): Sequential(
    (0): Sequential(
      (0): Linear(in_features=64, out_features=32, bias=True)
      (1): ReLU()
    )
    (1): Sequential(
      (0): Linear(in_features=32, out_features=16, bias=True)
      (1): ReLU()
    )
    (2): Sequential(
      (0): Linear(in_features=16, out_features=8, bias=True)
      (1): ReLU()
    )
    (3): Sequential(
      (0): Linear(in_features=8, out_features=4, bias=True)
      (1): ReLU()
    )
    (4): Sequential(
      (0): Linear(in_features=4, out_features=1, bias=True)
    )
  )
)
####### Model - Depth #######
BiGRUResidualAdd(
  (recurrent_blocks): ModuleList(
    (0): GRU(3, 32, batch_first=True, bidirectional=True)
    (1): GRU(64, 32, batch_first=True, bidirectional=True)
    (2): GRU(64, 32, batch_first=True, bidirectional=True)
    (3): GRU(64, 32, batch_first=True, bidirectional=True)
  )
  (fc_blocks): Sequential(
    (0): Sequential(
      (0): Linear(in_features=64, out_features=32, bias=True)
      (1): ReLU()
    )
    (1): Sequential(
      (0): Linear(in_features=32, out_features=16, bias=True)
      (1): ReLU()
    )
    (2): Sequential(
      (0): Linear(in_features=16, out_features=8, bias=True)
      (1): ReLU()
    )
    (3): Sequential(
      (0): Linear(in_features=8, out_features=4, bias=True)
      (1): ReLU()
    )
    (4): Sequential(
      (0): Linear(in_features=4, out_features=1, bias=True)
    )
  )
)
>>>>>>>>>>>>>>>>>>>>>>>>>>>>>[Epoch : 1/100000]<<<<<<<<<<<<<<<<<<<<<<<<<<<<
[#]Learning rate (Depth & EOT) :  0.01
===> [Minibatch 1/15].........Train Loss : 35937.777, Val Loss : 9124.206
======> Trajectory Loss : 3357.521, Gravity Loss : 73.785, EndOfTrajectory Loss : 1.376, BelowGroundPenalize Loss : 2224.206
===> [Minibatch 2/15].........Train Loss : 14320.986, Val Loss : 536.701
…
