…
===============================================================================================================================================================
===>No model checkpoint
[#] Define the Learning rate, Optimizer, Decay rate and Scheduler...
[#]Model Architecture
####### Model - EOT #######
BiGRUResidualAdd(
  (recurrent_blocks): ModuleList(
    (0): GRU(2, 32, batch_first=True, bidirectional=True)
    (1): GRU(64, 32, batch_first=True, bidirectional=True)
    (2): GRU(64, 32, batch_first=True, bidirectional=True)
    (3): GRU(64, 32, batch_first=True, bidirectional=True)
  )
  (fc_blocks): Sequential(
    (0): Sequential(
      (0): Linear(in_features=64, out_features=32, bias=True)
      (1): ReLU()
    )
    (1): Sequential(
      (0): Linear(in_features=32, out_features=16, bias=True)
      (1): ReLU()
    )
    (2): Sequential(
      (0): Linear(in_features=16, out_features=8, bias=True)
      (1): ReLU()
    )
    (3): Sequential(
      (0): Linear(in_features=8, out_features=4, bias=True)
      (1): ReLU()
    )
    (4): Sequential(
      (0): Linear(in_features=4, out_features=1, bias=True)
    )
  )
)
####### Model - Depth #######
BiGRUResidualAdd(
  (recurrent_blocks): ModuleList(
    (0): GRU(4, 32, batch_first=True, bidirectional=True)
    (1): GRU(64, 32, batch_first=True, bidirectional=True)
    (2): GRU(64, 32, batch_first=True, bidirectional=True)
    (3): GRU(64, 32, batch_first=True, bidirectional=True)
  )
  (fc_blocks): Sequential(
    (0): Sequential(
      (0): Linear(in_features=64, out_features=32, bias=True)
      (1): ReLU()
    )
    (1): Sequential(
      (0): Linear(in_features=32, out_features=16, bias=True)
      (1): ReLU()
    )
    (2): Sequential(
      (0): Linear(in_features=16, out_features=8, bias=True)
      (1): ReLU()
    )
    (3): Sequential(
      (0): Linear(in_features=8, out_features=4, bias=True)
      (1): ReLU()
    )
    (4): Sequential(
      (0): Linear(in_features=4, out_features=1, bias=True)
    )
  )
)
>>>>>>>>>>>>>>>>>>>>>>>>>>>>>[Epoch : 1/100000]<<<<<<<<<<<<<<<<<<<<<<<<<<<<
[#]Learning rate (Depth & EOT) :  0.01
===> [Minibatch 1/58].........tensor([[[ 9.3431e+00, -2.8932e+00,  9.3390e-02,  1.9342e-03],
         [-1.1445e-01, -2.8501e+00,  9.2310e-02,  1.9047e-03],
         [-1.1445e-01, -2.8071e+00,  9.1210e-02,  1.8760e-03],
         ...,
…
